new_model_quant.tflite (tflite, 814856 bytes, 23 tensors)

model/conv2d/Conv2D i1 [8, 3, 3, 1]
122 -1 104 103 114 127 86 -71
-47 -57 80 -94 -110 43 -66 -70
-76 -127 57 34 127 -89 -33 45
66 -55 90 44 -97 -16 27 -41
-94 72 -127 -98 105 127 -79 1
11 33 96 16 -77 24 127 118
99 -73 15 -40 26 3 -113 -127
3 99 115 -41 -126 115 59 -127
-28 -34 -65 108 104 -111 50 40
00000000: 7aff 6867 727f 56b9 d1c7 50a2 922b beba
00000010: b481 3922 7fa7 df2d 42c9 5a2c 9ff0 1bd7
00000020: a248 819e 697f b101 0b21 6010 b318 7f76
00000030: 63b7 0fd8 1a03 8f81 0363 73d7 8273 3b81
00000040: e4de bf6c 6891 3228

model/conv2d_1/Conv2D i1 [8, 3, 3, 8]
15 -22 19 -19 87 -16 2 110
94 -24 -64 61 46 60 22 18
14 13 -7 -39 67 -23 29 43
57 -18 -11 -59 85 97 -12 127
51 42 30 -73 62 -72 101 -59
-38 -5 2 -21 53 82 -21 18
36 -22 -45 -19 62 21 75 74
69 20 78 28 -18 -26 -40 -28
-9 -87 -5 95 70 17 -100 33
-41 -84 55 27 -23 86 -49 102
47 -56 98 -77 -64 5 76 40
-19 -49 -4 -2 40 -74 37 16
-35 62 -91 -99 -108 31 -10 127
17 -29 -78 -73 -71 98 36 66
8 -80 -37 -13 -79 -6 94 25
-73 32 71 86 -70 -93 64 24
17 78 -41 -105 81 56 117 104
-8 5 104 7 -76 -6 -66 36
48 -39 86 45 51 49 -45 -17
33 13 48 31 88 78 -60 -88
42 -4 11 45 50 78 -5 -127
84 43 -8 -18 -47 41 -13 32
62 -35 32 -72 61 -9 -90 -40
-19 40 28 33 -13 77 -88 -122
38 -48 47 13 -46 13 7 61
17 0 -33 71 2 48 -46 17
-21 53 -35 -35 71 89 -64 -21
7 87 63 40 -26 -74 -10 -24
-78 36 67 14 24 8 109 -50
-85 32 39 -16 -38 -34 55 -37
53 20 32 61 49 -41 26 15
7 -62 16 33 -15 -61 84 55
00000000: 0fea 13ed 57f0 026e 5ee8 c03d 2e3c 1612
00000010: 0e0d f9d9 43e9 1d2b 39ee f5c5 5561 f47f
00000020: 332a 1eb7 3eb8 65c5 dafb 02eb 3552 eb12
00000030: 24ea d3ed 3e15 4b4a 4514 4e1c eee6 d8e4
00000040: f7a9 fb5f 4611 9c21 d7ac 371b e956 cf66
00000050: 2fc8 62b3 c005 4c28 edcf fcfe 28b6 2510
00000060: dd3e a59d 941f f67f 11e3 b2b7 b962 2442
00000070: 08b0 dbf3 b1fa 5e19 b720 4756 baa3 4018
00000080: 114e d797 5138 7568 f805 6807 b4fa be24
00000090: 30d9 562d 3331 d3ef 210d 301f 584e c4a8
000000a0: 2afc 0b2d 324e fb81 542b f8ee d129 f320
000000b0: 3edd 20b8 3df7 a6d8 ed28 1c21 f34d a886
000000c0: 26d0 2f0d d20d 073d 1100 df47 0230 d211
000000d0: eb35 dddd 4759 c0eb 0757 3f28 e6b6 f6e8
000000e0: b224 430e 1808 6dce ab20 27f0 dade 37db
000000f0: 3514 203d 31d7 1a0f 07c2 1021 f1c3 5437

model/conv2d_2/Conv2D i1 [16, 3, 3, 8]
61 17 -48 -18 -79 50 80 10
-63 21 83 110 10 14 46 -32
-68 26 59 95 46 94 92 -7
90 -75 -104 26 49 61 -73 -41
-53 112 -41 103 -47 77 -48 79
18 17 -20 83 -91 24 122 -12
-81 127 52 46 82 -12 -62 -10
12 -85 30 -39 -83 22 76 10
-21 -13 -16 14 -67 -18 101 9
76 54 -65 6 63 -32 -71 69
34 -27 -4 -8 57 6 41 -63
-17 8 40 36 59 41 -74 -127
79 103 -59 53 89 -78 52 -41
85 104 88 -74 2 -38 61 43
-18 75 -60 -2 48 89 42 -57
29 27 50 -100 -9 -67 53 121
54 107 2 -106 15 31 -62 -28
-43 23 -13 8 -53 75 -30 70
-40 -51 -95 32 -71 16 -10 19
-76 -16 3 53 15 53 12 25
1 -68 -16 42 29 8 -20 4
10 -116 34 86 63 -44 55 -32
-92 -29 -98 19 3 35 -25 49
-3 31 -36 -30 -38 23 15 -60
-102 -37 -127 -11 3 18 33 3
-46 57 37 14 32 -46 25 4
49 -10 -40 35 66 92 2 48
24 23 -23 67 106 57 -105 -37
54 78 -52 67 101 88 -84 -33
86 -41 -27 22 114 112 -55 -56
58 74 99 -2 -84 -50 47 127
-15 7 0 26 0 -108 61 -110
00000000: 3d11 d0ee b132 500a c115 536e 0a0e 2ee0
00000010: bc1a 3b5f 2e5e 5cf9 5ab5 981a 313d b7d7
00000020: cb70 d767 d14d d04f 1211 ec53 a518 7af4
00000030: af7f 342e 52f4 c2f6 0cab 1ed9 ad16 4c0a
00000040: ebf3 f00e bdee 6509 4c36 bf06 3fe0 b945
00000050: 22e5 fcf8 3906 29c1 ef08 2824 3b29 b681
00000060: 4f67 c535 59b2 34d7 5568 58b6 02da 3d2b
00000070: ee4b c4fe 3059 2ac7 1d1b 329c f7bd 3579
00000080: 366b 0296 0f1f c2e4 d517 f308 cb4b e246
00000090: d8cd a120 b910 f613 b4f0 0335 0f35 0c19
000000a0: 01bc f02a 1d08 ec04 0a8c 2256 3fd4 37e0
000000b0: a4e3 9e13 0323 e731 fd1f dce2 da17 0fc4
000000c0: 9adb 81f5 0312 2103 d239 250e 20d2 1904
000000d0: 31f6 d823 425c 0230 1817 e943 6a39 97db
000000e0: 364e cc43 6558 acdf 56d7 e516 7270 c9c8
000000f0: 3a4a 63fe acce 2f7f f107 001a 0094 3d92

model/conv2d_3/Conv2D i1 [16, 3, 3, 16]
-6 114 -56 -72 34 -40 -85 -47
-80 107 -109 103 -70 106 101 105
11 67 75 -23 27 31 -57 3
-23 89 -56 105 27 61 4 20
-92 -26 -94 18 96 66 40 -66
-11 121 74 56 77 107 83 -74
-4 74 28 -50 14 89 -92 -93
-56 82 53 62 7 97 52 55
65 -74 -13 -74 -14 37 -33 -5
20 29 91 -64 9 -30 -13 -77
1 -36 78 92 60 -57 44 86
-71 82 84 -48 109 71 0 7
-55 -1 -87 50 -104 74 56 86
-117 78 100 73 80 56 -85 79
92 -3 -30 -55 -11 -71 54 -93
-72 127 -67 -25 73 69 -91 104
71 66 105 60 1 9 -94 -23
114 34 63 74 56 -55 -89 -96
-74 41 -30 -38 -18 59 2 32
-66 -71 -21 -81 74 63 -17 52
26 24 -61 35 16 116 46 -4
-32 -76 72 -7 91 35 56 71
67 65 -47 -8 -45 6 -12 -97
-41 -123 88 -70 27 -14 29 73
31 62 -58 47 90 46 -43 110
-7 36 101 42 7 -29 -1 101
81 7 -81 -42 62 88 -42 -47
53 -18 -34 -89 -35 -8 108 50
-24 66 -57 -22 -17 78 -28 -13
37 13 -45 -57 42 10 40 -50
-47 64 23 13 -16 -29 71 82
3 -26 -88 28 -76 -65 47 21
00000000: fa72 c8b8 22d8 abd1 b06b 9367 ba6a 6569
00000010: 0b43 4be9 1b1f c703 e959 c869 1b3d 0414
00000020: a4e6 a212 6042 28be f579 4a38 4d6b 53b6
00000030: fc4a 1cce 0e59 a4a3 c852 353e 0761 3437
00000040: 41b6 f3b6 f225 dffb 141d 5bc0 09e2 f3b3
00000050: 01dc 4e5c 3cc7 2c56 b952 54d0 6d47 0007
00000060: c9ff a932 984a 3856 8b4e 6449 5038 ab4f
00000070: 5cfd e2c9 f5b9 36a3 b87f bde7 4945 a568
00000080: 4742 693c 0109 a2e9 7222 3f4a 38c9 a7a0
00000090: b629 e2da ee3b 0220 beb9 ebaf 4a3f ef34
000000a0: 1a18 c323 1074 2efc e0b4 48f9 5b23 3847
000000b0: 4341 d1f8 d306 f49f d785 58ba 1bf2 1d49
000000c0: 1f3e c62f 5a2e d56e f924 652a 07e3 ff65
000000d0: 5107 afd6 3e58 d6d1 35ee dea7 ddf8 6c32
000000e0: e842 c7ea ef4e e4f3 250d d3c7 2a0a 28ce
000000f0: d140 170d f0e3 4752 03e6 a81c b4bf 2f15

model/conv2d_4/Conv2D i1 [32, 3, 3, 16]
62 -44 -28 -79 -30 -62 4 20
33 -71 54 46 57 73 78 -1
51 -73 -24 105 79 -13 -17 -34
-47 -36 -82 44 27 -11 -7 -109
-19 100 88 8 -53 -49 57 95
7 -5 94 109 45 117 -60 -45
72 36 -45 -41 87 -18 48 -42
3 127 79 70 -58 78 38 -65
-34 -10 5 64 40 -25 -103 -55
65 -22 1 45 -44 -44 -42 -56
-59 52 35 50 46 -72 -12 -11
20 45 37 -77 50 -17 45 27
-75 44 -82 104 13 -4 95 -8
48 100 29 3 -91 -27 -37 -35
23 6 33 42 -82 1 76 12
-51 -70 -21 102 52 -20 26 -55
73 18 -11 89 20 -99 -55 103
1 103 112 -25 102 -31 8 37
49 50 69 8 61 75 57 -57
28 85 36 -23 -48 -28 -44 -65
22 -45 -57 -30 57 -52 53 -83
-65 92 -71 53 -62 -28 29 -8
-25 22 90 -37 95 -85 -36 -85
63 -93 -50 44 59 -8 -4 34
-20 -87 -71 -49 23 -28 64 55
74 -31 -83 -16 76 -72 91 -67
102 15 -16 0 50 7 34 35
0 66 42 36 123 92 -36 31
-27 -33 7 -69 82 -83 -53 104
-33 72 61 -4 9 85 53 -31
-42 13 -27 -51 -50 -66 -11 67
-48 45 10 87 -95 24 13 72
00000000: 3ed4 e4b1 e2c2 0414 21b9 362e 3949 4eff
00000010: 33b7 e869 4ff3 efde d1dc ae2c 1bf5 f993
00000020: ed64 5808 cbcf 395f 07fb 5e6d 2d75 c4d3
00000030: 4824 d3d7 57ee 30d6 037f 4f46 c64e 26bf
00000040: def6 0540 28e7 99c9 41ea 012d d4d4 d6c8
00000050: c534 2332 2eb8 f4f5 142d 25b3 32ef 2d1b
00000060: b52c ae68 0dfc 5ff8 3064 1d03 a5e5 dbdd
00000070: 1706 212a ae01 4c0c cdba eb66 34ec 1ac9
00000080: 4912 f559 149d c967 0167 70e7 66e1 0825
00000090: 3132 4508 3d4b 39c7 1c55 24e9 d0e4 d4bf
000000a0: 16d3 c7e2 39cc 35ad bf5c b935 c2e4 1df8
000000b0: e716 5adb 5fab dcab 3fa3 ce2c 3bf8 fc22
000000c0: eca9 b9cf 17e4 4037 4ae1 adf0 4cb8 5bbd
000000d0: 660f f000 3207 2223 0042 2a24 7b5c dc1f
000000e0: e5df 07bb 52ad cb68 df48 3dfc 0955 35e1
000000f0: d60d e5cd cebe f543 d02d 0a57 a118 0d48

model/conv2d_5/Conv2D i1 [32, 3, 3, 32]
56 -20 -13 45 -28 -101 73 -64
85 -29 37 51 65 20 73 -38
-10 -60 -22 -57 10 2 23 24
66 77 -6 2 7 79 41 69
-23 32 61 -46 40 1 65 -81
-39 19 64 3 74 23 19 -13
-24 -34 3 -3 -39 0 73 45
-74 84 28 3 98 38 20 0
39 -47 81 -52 3 71 -49 9
7 -58 8 -7 -48 -28 68 32
-42 -58 -58 52 -36 -34 -52 18
-65 -65 41 36 38 -67 -63 -20
43 -46 34 -61 45 -106 -3 6
-39 -75 -2 -31 35 13 1 35
-49 19 28 -23 -16 -25 -27 -11
-42 97 89 -42 50 56 20 10
-55 -64 -19 41 59 -88 43 -6
49 -30 -49 70 -10 25 -5 -23
-39 -62 81 51 83 -46 21 -56
-55 52 -92 -14 -8 -24 39 -36
-42 26 -55 -56 -57 20 32 -75
-55 16 16 11 -17 40 0 -14
47 -40 -47 -30 51 -53 -2 -42
-36 -55 30 17 -27 -27 -7 15
33 -39 90 33 -51 -66 26 0
-73 51 -7 -60 126 13 1 50
56 1 6 32 50 33 63 -45
8 42 127 26 -20 66 -59 59
-33 -59 -39 -24 -22 32 28 -23
34 -28 -13 43 57 -5 -51 -21
-23 -64 -16 -9 15 -51 -5 18
2 33 45 18 -12 -33 -18 38
00000000: 38ec f32d e49b 49c0 55e3 2533 4114 49da
00000010: f6c4 eac7 0a02 1718 424d fa02 074f 2945
00000020: e920 3dd2 2801 41af d913 4003 4a17 13f3
00000030: e8de 03fd d900 492d b654 1c03 6226 1400
00000040: 27d1 51cc 0347 cf09 07c6 08f9 d0e4 4420
00000050: d6c6 c634 dcde cc12 bfbf 2924 26bd c1ec
00000060: 2bd2 22c3 2d96 fd06 d9b5 fee1 230d 0123
00000070: cf13 1ce9 f0e7 e5f5 d661 59d6 3238 140a
00000080: c9c0 ed29 3ba8 2bfa 31e2 cf46 f619 fbe9
00000090: d9c2 5133 53d2 15c8 c934 a4f2 f8e8 27dc
000000a0: d61a c9c8 c714 20b5 c910 100b ef28 00f2
000000b0: 2fd8 d1e2 33cb fed6 dcc9 1e11 e5e5 f90f
000000c0: 21d9 5a21 cdbe 1a00 b733 f9c4 7e0d 0132
000000d0: 3801 0620 3221 3fd3 082a 7f1a ec42 c53b
000000e0: dfc5 d9e8 ea20 1ce9 22e4 f32b 39fb cdeb
000000f0: e9c0 f0f7 0fcd fb12 0221 2d12 f4df ee26

model/conv2d_6/Conv2D i1 [64, 3, 3, 32]
5 -52 -58 -54 -101 22 67 -4
-102 -69 -89 43 -2 -70 79 12
20 -45 -65 -7 -63 -59 75 -66
-21 1 -7 -27 -29 19 -24 0
-39 49 -102 23 42 45 -51 -85
70 -60 33 44 -68 8 -16 -66
98 -36 48 33 -59 83 30 -81
8 49 -56 -19 -82 -43 50 38
-25 22 36 15 66 -3 56 -57
47 -45 -20 25 82 -89 41 37
89 -87 -56 26 49 10 89 -54
-57 84 -75 -12 44 -21 -9 -35
-10 88 -7 23 -39 -1 85 28
12 -21 -38 89 62 -12 -37 65
93 73 -125 62 -81 5 45 -74
-42 -35 -29 -83 -41 52 -75 5
-26 77 -47 -82 -17 56 -88 27
-108 -40 37 79 -81 27 59 -62
108 24 -22 -61 18 42 28 26
-15 96 101 85 88 77 22 0
-94 -71 7 -70 -35 9 72 97
-58 -62 71 43 56 -35 40 19
-76 -1 -33 -71 32 -77 73 -20
-72 56 94 -75 -27 -59 20 -30
-56 43 60 -36 93 -23 -5 90
-69 18 49 77 -22 -77 -72 84
-5 -83 46 72 7 -65 -11 56
26 81 -51 37 36 99 -69 -68
8 70 55 -9 64 56 10 16
54 5 -12 69 38 -34 51 92
-69 -49 100 4 -10 46 23 104
-18 -70 63 -75 -37 28 52 -36
00000000: 05cc c6ca 9b16 43fc 9abb a72b feba 4f0c
00000010: 14d3 bff9 c1c5 4bbe eb01 f9e5 e313 e800
00000020: d931 9a17 2a2d cdab 46c4 212c bc08 f0be
00000030: 62dc 3021 c553 1eaf 0831 c8ed aed5 3226
00000040: e716 240f 42fd 38c7 2fd3 ec19 52a7 2925
00000050: 59a9 c81a 310a 59ca c754 b5f4 2ceb f7dd
00000060: f658 f917 d9ff 551c 0ceb da59 3ef4 db41
00000070: 5d49 833e af05 2db6 d6dd e3ad d734 b505
00000080: e64d d1ae ef38 a81b 94d8 254f af1b 3bc2
00000090: 6c18 eac3 122a 1c1a f160 6555 584d 1600
000000a0: a2b9 07ba dd09 4861 c6c2 472b 38dd 2813
000000b0: b4ff dfb9 20b3 49ec b838 5eb5 e5c5 14e2
000000c0: c82b 3cdc 5de9 fb5a bb12 314d eab3 b854
000000d0: fbad 2e48 07bf f538 1a51 cd25 2463 bbbc
000000e0: 0846 37f7 4038 0a10 3605 f445 26de 335c
000000f0: bbcf 6404 f62e 1768 eeba 3fb5 db1c 34dc

model/conv2d_7/Conv2D i1 [64, 3, 3, 64]
-8 3 11 -60 53 -67 -54 -71
-8 70 15 -73 73 -80 -22 18
9 -22 -5 71 -33 -44 6 -64
39 53 -60 -16 -26 -4 -52 -32
-13 -30 -49 -8 -65 -16 -52 -2
-27 19 52 -50 -73 41 18 -59
-22 24 -51 -11 -26 -6 -57 22
-22 30 61 -69 26 27 34 91
44 14 -37 -49 61 -26 74 -15
-6 3 -80 76 13 44 16 1
-37 20 -4 -56 69 -103 -55 -14
13 50 52 -63 31 64 -15 -56
-64 35 -93 -82 3 39 13 -31
11 -23 -51 -81 -37 26 0 55
29 -16 43 -43 -29 -38 46 -63
37 55 75 -19 -53 38 -42 -53
22 -78 85 44 6 23 -24 -80
-30 93 -47 57 45 -28 52 12
-73 -10 -58 75 10 38 -50 78
-43 -49 -60 19 73 39 -30 52
78 56 -72 -98 -20 51 13 -39
-14 4 75 10 -40 -10 64 -23
79 -67 -45 -2 -47 71 -9 75
75 -12 70 -16 -9 57 -39 -28
53 -6 -72 5 -13 -69 -35 32
61 48 -45 59 -34 -52 70 28
-76 30 60 -55 -127 -37 9 -68
-37 -61 -10 -4 23 -55 15 15
-44 -3 -50 1 -69 -65 56 5
-2 -21 74 -29 -11 22 5 46
-40 -4 77 50 -22 -3 6 -27
36 -4 46 5 43 56 13 73
00000000: f803 0bc4 35bd cab9 f846 0fb7 49b0 ea12
00000010: 09ea fb47 dfd4 06c0 2735 c4f0 e6fc cce0
00000020: f3e2 cff8 bff0 ccfe e513 34ce b729 12c5
00000030: ea18 cdf5 e6fa c716 ea1e 3dbb 1a1b 225b
00000040: 2c0e dbcf 3de6 4af1 fa03 b04c 0d2c 1001
00000050: db14 fcc8 4599 c9f2 0d32 34c1 1f40 f1c8
00000060: c023 a3ae 0327 0de1 0be9 cdaf db1a 0037
00000070: 1df0 2bd5 e3da 2ec1 2537 4bed cb26 d6cb
00000080: 16b2 552c 0617 e8b0 e25d d139 2de4 340c
00000090: b7f6 c64b 0a26 ce4e d5cf c413 4927 e234
000000a0: 4e38 b89e ec33 0dd9 f204 4b0a d8f6 40e9
000000b0: 4fbd d3fe d147 f74b 4bf4 46f0 f739 d9e4
000000c0: 35fa b805 f3bb dd20 3d30 d33b decc 461c
000000d0: b41e 3cc9 81db 09bc dbc3 f6fc 17c9 0f0f
000000e0: d4fd ce01 bbbf 3805 feeb 4ae3 f516 052e
000000f0: d8fc 4d32 eafd 06e5 24fc 2e05 2b38 0d49

model/conv2d_8/Conv2D i1 [128, 3, 3, 64]
51 75 -50 90 12 55 -47 -50
-15 58 -102 -30 68 -48 99 24
-67 -55 105 12 72 5 -78 31
-73 -58 29 22 -66 69 43 -30
74 41 53 59 77 44 47 1
-44 19 -66 60 73 74 64 53
-53 -47 -64 -4 -3 -72 45 11
63 -49 4 88 -26 53 -9 -35
-92 66 26 70 -98 -1 -58 -124
37 62 -62 47 83 -18 -50 -38
-81 52 23 10 -6 -21 -54 -78
-37 80 19 -50 -127 34 75 -104
-36 23 1 -63 -38 -62 53 -3
81 31 83 26 -22 -3 37 -34
-65 -71 1 -52 -45 -68 -12 21
-5 -41 60 -55 -71 -67 4 -10
15 -74 28 29 26 -88 -16 33
-67 54 -21 -57 -75 33 37 64
62 82 12 -38 37 20 34 47
1 82 34 74 -75 -1 -11 43
-40 17 69 -87 -101 -55 -62 -71
-11 -71 -45 5 11 59 -31 82
32 32 -63 68 -55 11 58 56
11 -60 31 -70 -68 58 24 -18
35 -79 -70 -11 34 -26 -14 -61
-36 -33 -67 -12 -7 -17 -61 2
56 -58 5 -31 -50 -86 11 -21
-10 -13 -95 74 -68 -59 76 -16
28 -30 -42 24 17 -30 -43 69
-109 -28 -46 -63 -16 25 -61 -26
33 -61 -15 69 -63 -30 -14 74
0 -97 -59 2 -35 55 57 -17
00000000: 334b ce5a 0c37 d1ce f13a 9ae2 44d0 6318
00000010: bdc9 690c 4805 b21f b7c6 1d16 be45 2be2
00000020: 4a29 353b 4d2c 2f01 d413 be3c 494a 4035
00000030: cbd1 c0fc fdb8 2d0b 3fcf 0458 e635 f7dd
00000040: a442 1a46 9eff c684 253e c22f 53ee ceda
00000050: af34 170a faeb cab2 db50 13ce 8122 4b98
00000060: dc17 01c1 dac2 35fd 511f 531a eafd 25de
00000070: bfb9 01cc d3bc f415 fbd7 3cc9 b9bd 04f6
00000080: 0fb6 1c1d 1aa8 f021 bd36 ebc7 b521 2540
00000090: 3e52 0cda 2514 222f 0152 224a b5ff f52b
000000a0: d811 45a9 9bc9 c2b9 f5b9 d305 0b3b e152
000000b0: 2020 c144 c90b 3a38 0bc4 1fba bc3a 18ee
000000c0: 23b1 baf5 22e6 f2c3 dcdf bdf4 f9ef c302
000000d0: 38c6 05e1 ceaa 0beb f6f3 a14a bcc5 4cf0
000000e0: 1ce2 d618 11e2 d545 93e4 d2c1 f019 c3e6
000000f0: 21c3 f145 c1e2 f24a 009f c502 dd37 39ef

model/conv2d_9/Conv2D i1 [128, 3, 3, 128]
48 -28 -15 11 72 -44 28 -14
-26 46 68 18 25 16 -28 27
8 -47 71 -89 -18 50 6 28
51 9 51 -94 59 36 -22 60
20 29 49 -35 29 -2 18 39
65 44 40 20 -20 -71 -59 94
16 -52 -20 -27 -101 -10 -43 41
16 -34 -34 52 26 -1 -50 31
76 -55 41 -4 40 -43 -9 59
46 19 26 -73 -7 17 -33 -57
-60 65 53 -56 -53 -28 35 29
25 -39 -66 69 15 28 3 14
71 42 42 28 4 -10 -35 2
-13 3 -5 32 45 26 -55 53
-9 13 -40 1 -41 -66 23 -17
6 6 -40 -3 -41 -44 -62 33
-25 84 40 -54 -12 76 14 -58
-44 -49 -36 51 -40 96 15 50
18 42 -38 -3 -19 -9 57 21
3 -27 -38 43 -19 1 -2 59
35 -15 23 -28 7 -23 11 -52
20 -32 -53 -36 -49 -31 16 67
-2 -56 53 -17 13 22 -51 34
33 38 -29 47 63 -45 17 -35
-18 14 -69 -55 -32 -62 -25 33
57 22 52 -43 -18 70 -98 -46
-4 -32 -41 -31 -43 -8 -54 -32
20 -17 -10 63 -13 -14 14 40
26 -27 33 52 33 45 104 4
51 7 -63 20 17 28 -33 -61
-45 29 31 26 -27 -10 -25 -46
-95 46 4 24 9 81 -16 -58
00000000: 30e4 f10b 48d4 1cf2 e62e 4412 1910 e41b
00000010: 08d1 47a7 ee32 061c 3309 33a2 3b24 ea3c
00000020: 141d 31dd 1dfe 1227 412c 2814 ecb9 c55e
00000030: 10cc ece5 9bf6 d529 10de de34 1aff ce1f
00000040: 4cc9 29fc 28d5 f73b 2e13 1ab7 f911 dfc7
00000050: c441 35c8 cbe4 231d 19d9 be45 0f1c 030e
00000060: 472a 2a1c 04f6 dd02 f303 fb20 2d1a c935
00000070: f70d d801 d7be 17ef 0606 d8fd d7d4 c221
00000080: e754 28ca f44c 0ec6 d4cf dc33 d860 0f32
00000090: 122a dafd edf7 3915 03e5 da2b ed01 fe3b
000000a0: 23f1 17e4 07e9 0bcc 14e0 cbdc cfe1 1043
000000b0: fec8 35ef 0d16 cd22 2126 e32f 3fd3 11dd
000000c0: ee0e bbc9 e0c2 e721 3916 34d5 ee46 9ed2
000000d0: fce0 d7e1 d5f8 cae0 14ef f63f f3f2 0e28
000000e0: 1ae5 2134 212d 6804 3307 c114 111c dfc3
000000f0: d31d 1f1a e5f6 e7d2 a12e 0418 0951 f0c6

model/conv2d_transpose/conv2d_transpose i1 [256, 2, 2, 128]
120 -90 -1 -54 42 35 -40 -77
80 7 89 -34 -17 59 55 -21
16 -68 -13 -3 6 -56 9 69
106 84 84 42 28 3 2 -50
78 42 36 24 49 45 -33 121
55 40 -17 60 -11 -24 11 -9
37 -47 80 76 16 84 -86 90
7 -6 -55 9 -43 -34 -33 -72
-78 -52 -47 -68 70 44 9 41
-6 32 84 -35 1 -22 91 56
1 65 -50 -5 9 -81 3 4
5 -52 -43 1 18 4 -85 -44
109 0 -49 -67 -82 -103 7 0
63 66 26 -41 79 -31 -29 -7
20 41 -38 43 15 72 42 -58
29 31 1 -36 14 -91 11 66
117 -1 21 88 23 -66 -3 -86
61 -36 -48 -6 -72 68 56 -92
21 22 12 -53 -1 -33 30 -41
45 -21 -6 -37 42 55 -1 20
77 18 -13 -35 84 -47 -72 121
57 -89 88 -85 -59 -51 50 86
19 -2 -89 -29 30 -11 46 -39
5 47 -48 -93 34 83 -93 2
-87 -47 -64 -44 21 -43 10 -18
-112 20 -60 -15 83 -1 -18 -66
-27 -31 -12 15 88 -74 4 -60
42 -68 69 -78 -53 -34 -94 35
48 -41 -12 -45 26 -39 -24 47
93 42 -53 81 -80 82 -12 47
29 73 -25 58 -118 -57 -47 -66
-39 -58 71 -27 -32 -58 -19 -6
00000000: 78a6 ffca 2a23 d8b3 5007 59de ef3b 37eb
00000010: 10bc f3fd 06c8 0945 6a54 542a 1c03 02ce
00000020: 4e2a 2418 312d df79 3728 ef3c f5e8 0bf7
00000030: 25d1 504c 1054 aa5a 07fa c909 d5de dfb8
00000040: b2cc d1bc 462c 0929 fa20 54dd 01ea 5b38
00000050: 0141 cefb 09af 0304 05cc d501 1204 abd4
00000060: 6d00 cfbd ae99 0700 3f42 1ad7 4fe1 e3f9
00000070: 1429 da2b 0f48 2ac6 1d1f 01dc 0ea5 0b42
00000080: 75ff 1558 17be fdaa 3ddc d0fa b844 38a4
00000090: 1516 0ccb ffdf 1ed7 2deb fadb 2a37 ff14
000000a0: 4d12 f3dd 54d1 b879 39a7 58ab c5cd 3256
000000b0: 13fe a7e3 1ef5 2ed9 052f d0a3 2253 a302
000000c0: a9d1 c0d4 15d5 0aee 9014 c4f1 53ff eebe
000000d0: e5e1 f40f 58b6 04c4 2abc 45b2 cbde a223
000000e0: 30d7 f4d3 1ad9 e82f 5d2a cb51 b052 f42f
000000f0: 1d49 e73a 8ac7 d1be d9c6 47e5 e0c6 edfa

model/conv2d_10/Conv2D i1 [64, 3, 3, 320]
-46 -24 -6 -25 24 3 -45 36
-23 25 38 13 26 -57 -17 78
-8 9 6 66 -13 5 60 -44
3 -28 -25 10 44 -40 34 20
31 53 -54 64 50 -30 -26 -35
-3 11 19 64 -10 34 -58 1
-12 -19 -4 42 -79 37 28 -43
-76 6 4 20 -8 73 16 25
-5 -31 -50 7 29 10 -54 -12
-13 -18 -48 -45 82 74 30 18
25 -51 -5 12 -5 -83 36 24
-40 -18 -18 26 64 -19 56 40
-3 18 21 -88 12 4 -44 25
-45 -34 9 70 3 -37 -38 -14
73 34 28 30 4 -75 -47 -20
35 -59 -21 -1 -45 19 -36 41
55 -44 -64 -69 -8 -12 -20 22
-42 -45 42 80 -28 0 46 -17
-61 -7 25 -17 66 24 82 3
13 22 -81 -48 60 14 13 24
16 -14 4 -27 14 38 55 -53
-49 1 72 44 -53 1 -66 -26
20 36 23 -43 -59 7 33 -22
-24 28 72 62 -26 8 29 20
-12 -26 -7 -29 34 36 -40 29
9 3 -6 -29 44 -20 -51 69
4 -37 58 -54 -14 -19 -6 5
-58 -4 -68 42 26 -30 14 75
70 70 44 -14 -16 40 -24 -69
7 -1 -9 -46 70 -21 34 0
72 -31 -88 -58 58 5 32 -12
66 16 -74 -48 23 39 92 13
00000000: d2e8 fae7 1803 d324 e919 260d 1ac7 ef4e
00000010: f809 0642 f305 3cd4 03e4 e70a 2cd8 2214
00000020: 1f35 ca40 32e2 e6dd fd0b 1340 f622 c601
00000030: f4ed fc2a b125 1cd5 b406 0414 f849 1019
00000040: fbe1 ce07 1d0a caf4 f3ee d0d3 524a 1e12
00000050: 19cd fb0c fbad 2418 d8ee ee1a 40ed 3828
00000060: fd12 15a8 0c04 d419 d3de 0946 03db daf2
00000070: 4922 1c1e 04b5 d1ec 23c5 ebff d313 dc29
00000080: 37d4 c0bb f8f4 ec16 d6d3 2a50 e400 2eef
00000090: c3f9 19ef 4218 5203 0d16 afd0 3c0e 0d18
000000a0: 10f2 04e5 0e26 37cb cf01 482c cb01 bee6
000000b0: 1424 17d5 c507 21ea e81c 483e e608 1d14
000000c0: f4e6 f9e3 2224 d81d 0903 fae3 2cec cd45
000000d0: 04db 3aca f2ed fa05 c6fc bc2a 1ae2 0e4b
000000e0: 4646 2cf2 f028 e8bb 07ff f7d2 46eb 2200
000000f0: 48e1 a8c6 3a05 20f4 4210 b6d0 1727 5c0d

model/conv2d_11/Conv2D i1 [64, 3, 3, 64]
70 -23 -46 -11 74 -56 -43 48
80 98 40 -34 35 -35 -13 -9
-29 17 42 63 -21 12 -40 34
41 -59 51 -2 -45 89 82 -55
2 -116 -13 -25 -46 16 82 -97
77 -37 1 -54 17 49 -69 88
41 86 75 26 -42 5 12 44
15 -39 -38 -16 -55 29 -37 27
-19 59 25 23 -61 -48 -47 -26
-96 -33 42 -23 -46 37 100 -92
-87 -86 -86 -15 -29 81 107 52
-7 89 62 94 62 10 69 -2
13 -117 74 59 79 -67 -26 -106
22 1 45 66 82 -45 80 91
-106 32 -1 -30 47 97 10 -6
26 74 -38 63 -50 -56 33 -7
89 102 26 31 116 -41 -66 99
-69 71 25 -105 -36 -45 -61 -77
-56 55 32 60 82 -56 98 -27
-82 -30 -59 -30 60 32 88 -30
93 69 -17 -37 19 -65 19 62
54 48 73 89 -19 -73 40 -32
-69 6 99 0 -40 -38 20 51
77 -59 -43 24 -10 -19 -38 -96
-4 34 -7 27 -56 -50 111 -61
56 -41 -8 72 -68 34 -49 -93
127 -52 98 0 41 35 2 14
-18 74 57 43 -35 16 -89 -4
15 39 121 -22 64 -29 77 18
23 -11 66 92 -7 -69 23 -56
18 -93 29 -9 30 61 74 49
21 71 101 7 95 -71 90 -65
00000000: 46e9 d2f5 4ac8 d530 5062 28de 23dd f3f7
00000010: e311 2a3f eb0c d822 29c5 33fe d359 52c9
00000020: 028c f3e7 d210 529f 4ddb 01ca 1131 bb58
00000030: 2956 4b1a d605 0c2c 0fd9 daf0 c91d db1b
00000040: ed3b 1917 c3d0 d1e6 a0df 2ae9 d225 64a4
00000050: a9aa aaf1 e351 6b34 f959 3e5e 3e0a 45fe
00000060: 0d8b 4a3b 4fbd e696 1601 2d42 52d3 505b
00000070: 9620 ffe2 2f61 0afa 1a4a da3f cec8 21f9
00000080: 5966 1a1f 74d7 be63 bb47 1997 dcd3 c3b3
00000090: c837 203c 52c8 62e5 aee2 c5e2 3c20 58e2
000000a0: 5d45 efdb 13bf 133e 3630 4959 edb7 28e0
000000b0: bb06 6300 d8da 1433 4dc5 d518 f6ed daa0
000000c0: fc22 f91b c8ce 6fc3 38d7 f848 bc22 cfa3
000000d0: 7fcc 6200 2923 020e ee4a 392b dd10 a7fc
000000e0: 0f27 79ea 40e3 4d12 17f5 425c f9bb 17c8
000000f0: 12a3 1df7 1e3d 4a31 1547 6507 5fb9 5abf

model/conv2d_transpose_1/conv2d_transpose i1 [128, 2, 2, 64]
-68 52 2 4 45 -86 -8 -56
-60 -7 -34 -38 33 55 33 -2
-55 -41 67 69 -60 -51 -26 -20
-18 -79 -89 -64 3 12 127 -35
-71 -20 -46 -70 -26 71 -7 25
82 31 -75 32 -21 10 -71 22
106 -56 56 32 21 12 -83 65
81 43 -88 -73 3 85 64 67
48 -59 62 97 47 47 32 -58
76 70 23 -2 -62 83 -44 60
48 -54 51 95 -54 -48 15 60
6 84 13 -26 -42 71 55 40
63 -32 43 -10 -59 67 41 -39
-22 45 46 -47 -25 10 14 27
5 9 73 47 -58 -73 -79 67
75 66 -13 -10 5 -72 -61 7
5 20 13 -1 -68 -17 84 -35
2 40 62 -61 -81 16 -51 70
-64 6 7 29 -65 -61 19 76
42 62 -40 -38 3 -38 -36 -81
-48 59 9 -64 53 94 46 38
-85 73 32 -65 18 85 -51 23
94 17 50 -17 27 41 59 16
71 -78 65 -66 7 16 37 0
-42 -2 49 96 14 66 71 26
69 4 -40 3 18 77 -84 -71
57 58 -63 21 -17 -41 -51 -15
10 1 -89 18 12 72 82 15
-60 -67 -17 73 42 59 -40 -27
58 -23 15 11 55 45 25 70
83 39 8 -37 17 58 32 80
58 -62 -18 -47 48 -30 6 -4
00000000: bc34 0204 2daa f8c8 c4f9 deda 2137 21fe
00000010: c9d7 4345 c4cd e6ec eeb1 a7c0 030c 7fdd
00000020: b9ec d2ba e647 f919 521f b520 eb0a b916
00000030: 6ac8 3820 150c ad41 512b a8b7 0355 4043
00000040: 30c5 3e61 2f2f 20c6 4c46 17fe c253 d43c
00000050: 30ca 335f cad0 0f3c 0654 0de6 d647 3728
00000060: 3fe0 2bf6 c543 29d9 ea2d 2ed1 e70a 0e1b
00000070: 0509 492f c6b7 b143 4b42 f3f6 05b8 c307
00000080: 0514 0dff bcef 54dd 0228 3ec3 af10 cd46
00000090: c006 071d bfc3 134c 2a3e d8da 03da dcaf
000000a0: d03b 09c0 355e 2e26 ab49 20bf 1255 cd17
000000b0: 5e11 32ef 1b29 3b10 47b2 41be 0710 2500
000000c0: d6fe 3160 0e42 471a 4504 d803 124d acb9
000000d0: 393a c115 efd7 cdf1 0a01 a712 0c48 520f
000000e0: c4bd ef49 2a3b d8e5 3ae9 0f0b 372d 1946
000000f0: 5327 08db 113a 2050 3ac2 eed1 30e2 06fc

model/conv2d_12/Conv2D i1 [32, 3, 3, 160]
-85 57 85 24 24 12 22 29
-31 58 -8 69 -62 57 -89 72
-4 -89 -4 95 -48 -10 72 68
39 60 98 47 -74 33 46 65
8 25 44 49 67 -12 -100 15
-30 -63 70 55 103 64 40 59
41 59 11 37 -83 -7 -41 80
-74 85 20 63 78 -60 -3 99
15 -9 -71 -40 70 42 1 -2
-48 -67 -88 16 -71 10 -35 7
-20 60 30 -35 43 -9 -31 -70
-12 -74 -42 82 104 62 -26 -62
-44 -103 37 -101 62 25 -47 -13
69 -49 -18 49 17 23 16 31
-2 -61 5 24 -46 12 59 83
-55 -37 -31 -74 37 14 88 74
54 55 -60 -41 46 -18 39 -19
3 61 -43 53 74 39 -21 -40
72 -7 73 -43 -19 93 -62 -33
84 37 -90 -101 -82 -51 30 -26
-3 -26 73 54 55 -53 118 48
30 28 44 16 59 25 -15 -29
50 10 -45 -6 70 -17 -48 17
-22 58 77 14 -75 43 -79 -37
57 -108 -60 64 -67 -61 -75 -44
47 -75 -5 -38 -5 -71 47 81
65 20 63 -22 -67 4 -62 50
4 -1 77 7 -21 -41 71 31
-12 51 88 24 -21 -71 34 40
26 -79 11 74 59 87 74 -28
35 -29 56 36 24 -39 45 76
-84 -16 48 74 106 -3 -55 -33
00000000: ab39 5518 180c 161d e13a f845 c239 a748
00000010: fca7 fc5f d0f6 4844 273c 622f b621 2e41
00000020: 0819 2c31 43f4 9c0f e2c1 4637 6740 283b
00000030: 293b 0b25 adf9 d750 b655 143f 4ec4 fd63
00000040: 0ff7 b9d8 462a 01fe d0bd a810 b90a dd07
00000050: ec3c 1edd 2bf7 e1ba f4b6 d652 683e e6c2
00000060: d499 259b 3e19 d1f3 45cf ee31 1117 101f
00000070: fec3 0518 d20c 3b53 c9db e1b6 250e 584a
00000080: 3637 c4d7 2eee 27ed 033d d535 4a27 ebd8
00000090: 48f9 49d5 ed5d c2df 5425 a69b aecd 1ee6
000000a0: fde6 4936 37cb 7630 1e1c 2c10 3b19 f1e3
000000b0: 320a d3fa 46ef d011 ea3a 4d0e b52b b1db
000000c0: 3994 c440 bdc3 b5d4 2fb5 fbda fbb9 2f51
000000d0: 4114 3fea bd04 c232 04ff 4d07 ebd7 471f
000000e0: f433 5818 ebb9 2228 1ab1 0b4a 3b57 4ae4
000000f0: 23e3 3824 18d9 2d4c acf0 304a 6afd c9df

model/conv2d_13/Conv2D i1 [32, 3, 3, 32]
92 -15 -72 8 -28 -6 35 -81
98 -87 105 -62 9 -86 -51 68
-6 95 -46 122 53 -46 -47 -67
8 -119 81 -36 -79 84 33 -83
4 25 73 -50 -70 -19 56 -12
20 20 -33 -39 -4 80 -71 -44
12 -86 58 -34 -104 11 -61 19
79 -28 25 15 22 -56 -6 84
62 -82 -39 -23 -24 -36 8 -93
14 -4 18 -38 -95 30 75 -62
-24 -4 -82 -22 -53 -15 81 -66
1 -69 -44 70 11 -2 -65 3
-35 -3 84 -44 -31 40 -46 -25
27 28 29 -20 3 -66 101 73
58 42 16 117 -17 -40 56 55
32 -98 -50 -45 -73 -63 -71 -73
-47 81 59 83 -24 -100 62 -49
70 82 -11 8 67 9 66 -71
-47 22 74 -4 -13 15 -41 -48
86 17 -58 55 0 -75 -77 -84
24 91 10 53 -40 23 -49 -74
-71 -59 4 20 -85 16 13 -35
37 -68 -68 108 -94 80 42 -94
113 -3 10 29 -36 14 -67 -74
90 -22 -2 -21 -109 54 66 64
79 101 -73 -74 -50 63 -15 -103
40 -50 46 57 64 11 39 21
12 -44 68 54 -92 50 42 100
-69 1 58 86 -83 -1 -56 -8
22 93 -50 18 62 -54 38 -44
75 83 -99 45 92 103 57 -54
63 -100 -40 -46 -12 -30 -95 34
00000000: 5cf1 b808 e4fa 23af 62a9 69c2 09aa cd44
00000010: fa5f d27a 35d2 d1bd 0889 51dc b154 21ad
00000020: 0419 49ce baed 38f4 1414 dfd9 fc50 b9d4
00000030: 0caa 3ade 980b c313 4fe4 190f 16c8 fa54
00000040: 3eae d9e9 e8dc 08a3 0efc 12da a11e 4bc2
00000050: e8fc aeea cbf1 51be 01bb d446 0bfe bf03
00000060: ddfd 54d4 e128 d2e7 1b1c 1dec 03be 6549
00000070: 3a2a 1075 efd8 3837 209e ced3 b7c1 b9b7
00000080: d151 3b53 e89c 3ecf 4652 f508 4309 42b9
00000090: d116 4afc f30f d7d0 5611 c637 00b5 b3ac
000000a0: 185b 0a35 d817 cfb6 b9c5 0414 ab10 0ddd
000000b0: 25bc bc6c a250 2aa2 71fd 0a1d dc0e bdb6
000000c0: 5aea feeb 9336 4240 4f65 b7b6 ce3f f199
000000d0: 28ce 2e39 400b 2715 0cd4 4436 a432 2a64
000000e0: bb01 3a56 adff c8f8 165d ce12 3eca 26d4
000000f0: 4b53 9d2d 5c67 39ca 3f9c d8d2 f4e2 a122

model/conv2d_transpose_2/conv2d_transpose i1 [64, 2, 2, 32]
-33 36 -84 17 -29 10 44 -27
67 66 53 -3 16 55 127 13
58 -31 77 13 28 48 10 15
3 54 2 31 30 68 -21 -43
-51 49 -67 0 21 59 -18 9
-19 26 -29 42 -29 -50 39 -52
51 38 26 14 -27 22 -38 51
85 -8 17 25 -21 44 -6 13
61 -1 2 17 1 -7 14 40
-27 -13 48 -54 6 -68 23 0
9 35 43 -1 -36 51 25 -29
6 23 24 69 -20 59 87 -26
-61 29 -1 45 -35 -65 -35 44
65 -61 44 -43 -16 -21 -30 -23
77 34 26 27 33 95 54 50
87 33 -54 52 -2 44 -38 42
-24 9 113 -8 -63 24 4 -13
-47 -56 23 -59 -52 -29 -45 62
-108 -14 -95 49 57 -96 -68 4
49 -19 -34 -68 -60 -33 -57 13
-24 4 106 -24 37 65 -53 -64
14 -46 40 2 69 35 -27 14
-41 -63 -42 -59 4 -105 -76 15
34 -58 38 -11 46 49 -83 -11
3 36 85 -28 -19 13 -39 -43
-13 -76 -20 -49 -33 44 -121 -38
-84 -62 -82 -48 -55 3 -31 -94
-87 -85 -34 -7 -38 -55 2 -18
-50 -2 59 7 -10 -11 40 57
-25 -26 -34 3 6 11 -47 38
-29 25 -44 53 5 -127 -88 -86
-52 -122 -41 -37 33 55 -107 19
00000000: df24 ac11 e30a 2ce5 4342 35fd 1037 7f0d
00000010: 3ae1 4d0d 1c30 0a0f 0336 021f 1e44 ebd5
00000020: cd31 bd00 153b ee09 ed1a e32a e3ce 27cc
00000030: 3326 1a0e e516 da33 55f8 1119 eb2c fa0d
00000040: 3dff 0211 01f9 0e28 e5f3 30ca 06bc 1700
00000050: 0923 2bff dc33 19e3 0617 1845 ec3b 57e6
00000060: c31d ff2d ddbf dd2c 41c3 2cd5 f0eb e2e9
00000070: 4d22 1a1b 215f 3632 5721 ca34 fe2c da2a
00000080: e809 71f8 c118 04f3 d1c8 17c5 cce3 d33e
00000090: 94f2 a131 39a0 bc04 31ed debc c4df c70d
000000a0: e804 6ae8 2541 cbc0 0ed2 2802 4523 e50e
000000b0: d7c1 d6c5 0497 b40f 22c6 26f5 2e31 adf5
000000c0: 0324 55e4 ed0d d9d5 f3b4 eccf df2c 87da
000000d0: acc2 aed0 c903 e1a2 a9ab def9 dac9 02ee
000000e0: cefe 3b07 f6f5 2839 e7e6 de03 060b d126
000000f0: e319 d435 0581 a8aa cc86 d7db 2137 9513

model/conv2d_14/Conv2D i1 [16, 3, 3, 80]
32 40 32 -22 34 8 43 -71
-44 32 -68 -56 58 36 -12 37
-60 -55 87 -62 68 -8 -59 4
15 -2 45 71 27 -33 -64 43
-43 -5 30 15 7 -64 58 30
13 -75 40 28 37 60 55 -16
-35 49 -22 -25 -37 -12 -1 -26
-19 26 -55 -28 -60 -18 -48 -45
61 42 -31 1 42 25 18 49
-17 -47 -95 -31 -44 -53 -23 17
-66 -59 74 -85 30 -7 -63 10
-3 48 -16 52 -16 74 -28 0
52 -53 40 58 -17 -20 63 -69
8 -11 -66 -48 71 24 35 63
64 17 -65 65 42 59 -36 22
-44 31 -58 34 75 21 -56 -67
-21 61 43 -22 41 -68 -9 39
-37 61 5 8 12 7 -6 57
-82 67 75 -15 38 -63 22 -31
-14 33 -30 29 51 57 -48 24
-60 -71 9 -36 -69 21 25 -78
-44 -3 21 -33 -16 -41 74 -62
17 -55 -52 28 51 -8 38 58
-36 11 -68 51 -16 -77 -22 -2
63 25 44 -36 42 -11 10 -2
28 25 84 -77 -17 69 -69 60
26 37 -47 82 -60 -25 2 71
23 71 62 -58 -57 66 51 49
-6 44 -42 97 12 -12 -25 29
-43 13 -35 20 -13 8 -34 82
-35 32 -47 33 -33 15 -23 42
49 -45 -26 -47 -15 2 -72 45
00000000: 2028 20ea 2208 2bb9 d420 bcc8 3a24 f425
00000010: c4c9 57c2 44f8 c504 0ffe 2d47 1bdf c02b
00000020: d5fb 1e0f 07c0 3a1e 0db5 281c 253c 37f0
00000030: dd31 eae7 dbf4 ffe6 ed1a c9e4 c4ee d0d3
00000040: 3d2a e101 2a19 1231 efd1 a1e1 d4cb e911
00000050: bec5 4aab 1ef9 c10a fd30 f034 f04a e400
00000060: 34cb 283a efec 3fbb 08f5 bed0 4718 233f
00000070: 4011 bf41 2a3b dc16 d41f c622 4b15 c8bd
00000080: eb3d 2bea 29bc f727 db3d 0508 0c07 fa39
00000090: ae43 4bf1 26c1 16e1 f221 e21d 3339 d018
000000a0: c4b9 09dc bb15 19b2 d4fd 15df f0d7 4ac2
000000b0: 11c9 cc1c 33f8 263a dc0b bc33 f0b3 eafe
000000c0: 3f19 2cdc 2af5 0afe 1c19 54b3 ef45 bb3c
000000d0: 1a25 d152 c4e7 0247 1747 3ec6 c742 3331
000000e0: fa2c d661 0cf4 e71d d50d dd14 f308 de52
000000f0: dd20 d121 df0f e92a 31d3 e6d1 f102 b82d

model/conv2d_15/Conv2D i1 [16, 3, 3, 16]
40 -46 -36 -22 100 102 13 -38
52 7 7 61 50 20 14 -68
-49 -37 16 107 106 -11 -9 26
52 56 -46 44 3 -15 50 -62
-47 59 9 -15 55 103 19 0
64 -3 61 83 97 -82 -94 0
-65 -56 97 58 76 -72 92 -76
-27 -32 8 61 -79 -64 -35 97
69 -12 -17 127 -52 -36 102 -76
40 86 -6 87 -37 -33 34 27
24 96 43 112 -42 2 74 -52
-17 -82 -94 -34 7 -22 21 23
18 -75 -64 -63 11 -6 6 -89
-48 30 -1 -83 -96 -117 -73 -94
-68 -18 69 77 20 16 -99 51
-70 110 -55 65 68 43 65 46
44 -74 -59 -80 -56 42 46 -64
66 84 -84 -23 -107 4 -71 -111
17 75 48 -79 -89 -13 56 117
99 119 55 -24 -93 -12 -26 42
92 108 42 -92 -107 -74 -12 71
9 126 -84 -91 34 116 -23 81
40 28 -55 103 106 120 -84 82
91 89 -35 -40 82 9 4 41
32 -90 91 -79 85 39 37 27
-31 98 53 -29 8 70 -54 -66
-91 -52 -114 -113 -79 79 -61 80
7 -15 -93 -95 15 91 4 -61
27 18 -7 70 11 13 -80 127
80 -10 86 44 -27 -5 83 18
100 92 -78 21 2 76 12 -48
-68 0 12 99 46 -69 92 78
00000000: 28d2 dcea 6466 0dda 3407 073d 3214 0ebc
00000010: cfdb 106b 6af5 f71a 3438 d22c 03f1 32c2
00000020: d13b 09f1 3767 1300 40fd 3d53 61ae a200
00000030: bfc8 613a 4cb8 5cb4 e5e0 083d b1c0 dd61
00000040: 45f4 ef7f ccdc 66b4 2856 fa57 dbdf 221b
00000050: 1860 2b70 d602 4acc efae a2de 07ea 1517
00000060: 12b5 c0c1 0bfa 06a7 d01e ffad a08b b7a2
00000070: bcee 454d 1410 9d33 ba6e c941 442b 412e
00000080: 2cb6 c5b0 c82a 2ec0 4254 ace9 9504 b991
00000090: 114b 30b1 a7f3 3875 6377 37e8 a3f4 e62a
000000a0: 5c6c 2aa4 95b6 f447 097e aca5 2274 e951
000000b0: 281c c967 6a78 ac52 5b59 ddd8 5209 0429
000000c0: 20a6 5bb1 5527 251b e162 35e3 0846 cabe
000000d0: a5cc 8e8f b14f c350 07f1 a3a1 0f5b 04c3
000000e0: 1b12 f946 0b0d b07f 50f6 562c e5fb 5312
000000f0: 645c b215 024c 0cd0 bc00 0c63 2ebb 5c4e

model/conv2d_transpose_3/conv2d_transpose i1 [32, 2, 2, 16]
37 54 12 127 -42 69 46 54
27 0 53 8 44 30 11 -22
-22 43 -49 89 64 -13 -21 59
-9 9 17 -55 24 7 -12 24
6 30 -47 110 15 2 3 66
65 45 -29 -9 43 -36 -50 -21
54 -3 0 -1 56 23 -20 -14
13 5 0 12 -33 50 -8 34
5 -25 15 59 32 -9 80 -5
-31 65 -29 10 25 -49 -78 14
71 -8 -12 -23 -66 55 -9 -64
-36 -20 63 -71 -6 57 -28 14
63 1 -15 127 -37 -9 79 36
68 -30 -57 -29 69 -53 -54 -45
125 46 8 -25 65 -68 -55 79
-3 17 55 -36 63 57 -18 50
-28 87 -73 -46 39 -10 -56 79
93 34 32 83 -47 30 18 -38
63 -39 32 127 96 -61 92 20
35 5 87 91 60 -59 4 -13
83 103 35 25 1 -71 -82 23
-2 81 -22 -1 52 -10 -49 -52
71 -27 56 75 11 86 12 49
64 99 21 39 98 84 45 23
-61 11 -58 49 39 39 8 -19
-2 71 100 38 38 -58 18 -63
-18 20 23 127 11 -40 58 -20
39 -7 -47 98 58 -52 56 49
11 -48 -65 -8 57 -1 -59 25
88 54 -13 -49 58 -3 0 4
6 69 -54 115 59 26 31 58
49 4 115 -25 -33 95 -5 28
00000000: 2536 0c7f d645 2e36 1b00 3508 2c1e 0bea
00000010: ea2b cf59 40f3 eb3b f709 11c9 1807 f418
00000020: 061e d16e 0f02 0342 412d e3f7 2bdc ceeb
00000030: 36fd 00ff 3817 ecf2 0d05 000c df32 f822
00000040: 05e7 0f3b 20f7 50fb e141 e30a 19cf b20e
00000050: 47f8 f4e9 be37 f7c0 dcec 3fb9 fa39 e40e
00000060: 3f01 f17f dbf7 4f24 44e2 c7e3 45cb cad3
00000070: 7d2e 08e7 41bc c94f fd11 37dc 3f39 ee32
00000080: e457 b7d2 27f6 c84f 5d22 2053 d11e 12da
00000090: 3fd9 207f 60c3 5c14 2305 575b 3cc5 04f3
000000a0: 5367 2319 01b9 ae17 fe51 eaff 34f6 cfcc
000000b0: 47e5 384b 0b56 0c31 4063 1527 6254 2d17
000000c0: c30b c631 2727 08ed fe47 6426 26c6 12c1
000000d0: ee14 177f 0bd8 3aec 27f9 d162 3acc 3831
000000e0: 0bd0 bff8 39ff c519 5836 f3cf 3afd 0004
000000f0: 0645 ca73 3b1a 1f3a 3104 73e7 df5f fb1c

model/conv2d_16/Conv2D i1 [8, 3, 3, 40]
4 -13 -36 23 -17 33 56 -22
9 21 0 -8 -34 3 -36 44
-38 -11 -44 -24 -8 -42 -2 -14
-60 -31 -41 -46 -18 48 -61 -39
59 98 -48 6 -18 -21 45 27
-9 -2 -10 -25 57 -10 54 -17
45 59 30 -43 2 22 10 9
-41 -24 33 -6 -9 -31 -9 -56
-34 -34 42 -5 55 37 -41 -18
8 47 9 48 43 -65 31 -56
-4 30 7 -22 -28 -35 9 31
-31 1 34 44 63 -22 -21 -56
30 -21 -19 26 48 34 48 -44
-53 44 -42 -49 -16 -4 52 -35
-26 -13 -19 68 -21 -51 53 -64
-10 -10 53 41 72 -8 13 -34
-19 -49 -40 -27 -1 -34 35 -34
-22 -46 36 63 -8 46 16 56
11 29 -56 -27 -3 -22 -32 1
16 65 -14 -5 1 -49 26 -9
48 37 0 26 8 44 20 6
-37 -47 27 31 18 33 -37 -9
-15 -50 54 -41 -6 -43 -6 0
-82 -29 -16 -48 -32 -2 -28 -36
-19 3 14 -80 79 -37 11 -4
39 -19 67 -39 39 -48 -13 5
0 -37 -44 -13 31 -30 0 32
18 31 -32 -46 -1 13 10 -19
41 9 41 45 -9 61 5 -20
-23 -115 22 -30 7 0 -10 -60
-8 -27 -50 55 -11 -17 56 53
-49 47 -65 51 30 45 -29 -23
00000000: 04f3 dc17 ef21 38ea 0915 00f8 de03 dc2c
00000010: daf5 d4e8 f8d6 fef2 c4e1 d7d2 ee30 c3d9
00000020: 3b62 d006 eeeb 2d1b f7fe f6e7 39f6 36ef
00000030: 2d3b 1ed5 0216 0a09 d7e8 21fa f7e1 f7c8
00000040: dede 2afb 3725 d7ee 082f 0930 2bbf 1fc8
00000050: fc1e 07ea e4dd 091f e101 222c 3fea ebc8
00000060: 1eeb ed1a 3022 30d4 cb2c d6cf f0fc 34dd
00000070: e6f3 ed44 ebcd 35c0 f6f6 3529 48f8 0dde
00000080: edcf d8e5 ffde 23de ead2 243f f82e 1038
00000090: 0b1d c8e5 fdea e001 1041 f2fb 01cf 1af7
000000a0: 3025 001a 082c 1406 dbd1 1b1f 1221 dbf7
000000b0: f1ce 36d7 fad5 fa00 aee3 f0d0 e0fe e4dc
000000c0: ed03 0eb0 4fdb 0bfc 27ed 43d9 27d0 f305
000000d0: 00db d4f3 1fe2 0020 121f e0d2 ff0d 0aed
000000e0: 2909 292d f73d 05ec e98d 16e2 0700 f6c4
000000f0: f8e5 ce37 f5ef 3835 cf2f bf33 1e2d e3e9

model/conv2d_17/Conv2D i1 [8, 3, 3, 8]
110 57 80 -59 8 -42 -80 75
-21 -28 -22 -28 19 69 99 25
91 44 -58 98 -5 99 -51 -30
101 49 47 68 -35 113 75 -24
-49 28 -71 73 11 60 127 12
116 -21 49 -42 104 44 14 56
91 -36 76 -59 -32 31 90 41
-28 37 108 28 -9 14 41 -43
63 -69 102 87 69 98 -14 -99
-58 -69 26 -30 -6 7 -88 -15
-92 -49 -66 25 69 -95 -81 -9
-43 -79 8 -19 42 99 -58 127
-33 14 39 16 -98 -88 -43 12
57 -10 28 23 -59 -14 -78 73
-112 -93 27 42 -59 22 -31 -58
23 -14 -16 0 -53 101 93 39
85 45 -44 90 12 -61 74 -46
89 35 79 15 47 -40 109 -31
-86 -37 56 -36 68 -75 -94 107
-57 -80 -61 -45 -47 32 -25 60
-39 -74 71 83 -73 37 65 79
13 -64 60 15 -82 61 -88 85
-75 -107 76 -27 25 12 -127 38
-59 -81 70 59 39 -20 -17 -30
-62 -65 -81 -26 -99 -102 -50 122
9 67 16 13 -72 -108 19 -35
-46 74 26 -12 -35 76 -5 -10
-88 -8 27 24 7 51 116 -12
114 -40 28 97 -34 92 -34 -19
53 -21 23 5 107 74 101 11
23 71 -23 -19 75 68 34 74
-5 52 74 -29 28 21 67 -76
00000000: 6e39 50c5 08d6 b04b ebe4 eae4 1345 6319
00000010: 5b2c c662 fb63 cde2 6531 2f44 dd71 4be8
00000020: cf1c b949 0b3c 7f0c 74eb 31d6 682c 0e38
00000030: 5bdc 4cc5 e01f 5a29 e425 6c1c f70e 29d5
00000040: 3fbb 6657 4562 f29d c6bb 1ae2 fa07 a8f1
00000050: a4cf be19 45a1 aff7 d5b1 08ed 2a63 c67f
00000060: df0e 2710 9ea8 d50c 39f6 1c17 c5f2 b249
00000070: 90a3 1b2a c516 e1c6 17f2 f000 cb65 5d27
00000080: 552d d45a 0cc3 4ad2 5923 4f0f 2fd8 6de1
00000090: aadb 38dc 44b5 a26b c7b0 c3d3 d120 e73c
000000a0: d9b6 4753 b725 414f 0dc0 3c0f ae3d a855
000000b0: b595 4ce5 190c 8126 c5af 463b 27ec efe2
000000c0: c2bf afe6 9d9a ce7a 0943 100d b894 13dd
000000d0: d24a 1af4 dd4c fbf6 a8f8 1b18 0733 74f4
000000e0: 72d8 1c61 de5c deed 35eb 1705 6b4a 650b
000000f0: 1747 e9ed 4b44 224a fb34 4ae3 1c15 43b4

model/conv2d_18/Conv2D i1 [1, 1, 1, 8] scale=0.0070849922 zero_point=0
-0.41092956 0.2763147 0.89979404 -0.63056433 -0.86436903 0.0070849922 0.33299464 0.2833997
00000000: c627 7fa7 8601 2f28
